fruits360/android/app/src/main/ml/cnn_model.tflite (tflite, 68672 bytes, 10 tensors)

dense_2/bias f2 [131]
000000 18 2d 4a 32 42 33 0f b3 45 2e b8 a5 35 2d 05 ab
       0.0796 0.1965 0.2268 -0.2206 0.09796 -0.02234 0.08136 -0.05484
000010 4a 2f f8 32 72 2b 11 b2 7b b2 2a 2f fc ae 80 ac
       0.1139 0.2178 0.05817 -0.1896 -0.2025 0.11194 -0.10913 -0.0703
000020 59 ae 6b b6 8c b4 01 a7 42 9c f3 30 bd b4 a0 ab
       -0.0992 -0.4011 -0.2842 -0.02736 -0.004158 0.1547 -0.2961 -0.05957
000030 8f b3 41 37 80 30 b3 ae 9a b1 dd 30 ff 2c b2 b0
       -0.2362 0.4534 0.1406 -0.1047 -0.175 0.152 0.07806 -0.1467
000040 54 33 94 b5 2a ae a3 b3 d7 ae c0 b1 eb a9 29 a1
       0.229 -0.3486 -0.0963 -0.2386 -0.1069 -0.1797 -0.04623 -0.01008
000050 6c b0 40 b3 ee a8 a1 b1 e2 37 6c 35 39 2a b1 ab
       -0.1382 -0.2266 -0.0385 -0.1759 0.4927 0.3389 0.0486 -0.0601
000060 a3 34 8b 32 ca b4 0c a3 09 34 fb b1 20 b2 25 b4
       0.2898 0.2045 -0.2993 -0.01376 0.2522 -0.1869 -0.1914 -0.259
000070 78 31 ba ac b7 b5 31 27 cf b1 1e 33 c6 b4 ae 35
       0.1709 -0.07385 -0.3572 0.02809 -0.1815 0.2224 -0.2983 0.355
000080 0d ae 78 b0 ec ac 59 a9 6f 28 a3 29 ff ae c6 31
       -0.09454 -0.1396 -0.0769 -0.04178 0.03464 0.04404 -0.1093 0.1804
000090 df 35 2c 24 a3 14 c3 a9 6b 27 c4 2d 2a 9f 2e a9
       0.367 0.0163 0.001132 -0.045 0.02898 0.0901 -0.006996 -0.04047
0000a0 3c 35 54 1c 40 34 7c 30 b5 b4 16 2b f1 a0 04 32
       0.3271 0.004227 0.2656 0.1401 -0.2942 0.05536 -0.00965 0.188
0000b0 20 b4 3c b4 c7 ab f5 ac 18 b0 38 34 29 30 41 9e
       -0.2578 -0.2646 -0.06076 -0.07745 -0.1279 0.2637 0.13 -0.006107
0000c0 b3 ad d6 20 4c a8 be 38 9c 31 e9 b5 e8 34 85 b0
       -0.08905 0.009445 -0.03357 0.593 0.1753 -0.3694 0.3066 -0.1412
0000d0 20 b0 cd 35 c4 2e 00 aa 65 aa d3 1e 11 aa 7d b4
       -0.1289 0.3625 0.1057 -0.04688 -0.04996 0.006664 -0.0474 -0.2805
0000e0 55 34 3e b2 ef b0 74 a3 0c ad fa 30 04 b6 2c 30
       0.2708 -0.1951 -0.1542 -0.01456 -0.07886 0.1555 -0.376 0.1304
0000f0 f3 b1 fe b1 b4 a8 ec 2c 76 b2 dd b0 a4 31 75 b2
       -0.1859 -0.1873 -0.03674 0.0769 -0.2019 -0.152 0.1763 -0.2018
000100 96 a7 e4 32 ca 2e
       -0.02963 0.2153 0.1061

dense_1/bias f2 [84]
000000 21 b4 46 30 3a ab 70 33 c7 ac fa ac 9f 31 d7 a1
       -0.258 0.1335 -0.05646 0.2324 -0.07465 -0.07776 0.1757 -0.011406
000010 84 9f 3b a8 61 b5 c2 a9 75 a9 14 b7 f7 35 fe 30
       -0.00734 -0.03305 -0.3362 -0.04498 -0.04263 -0.4424 0.3728 0.156
000020 30 2e c9 a5 07 a9 5d 26 b1 38 97 a5 26 b4 f1 a9
       0.0967 -0.0226 -0.03928 0.02486 0.5864 -0.02184 -0.2593 -0.04642
000030 d0 24 28 34 42 a3 ad ab 89 ad 70 30 0a 36 13 15
       0.0188 0.2598 -0.014175 -0.05997 -0.0865 0.1387 0.3774 0.001239
000040 42 33 79 32 d8 a6 99 aa f3 37 bd 31 a8 b1 3b 2f
       0.2268 0.2023 -0.02673 -0.05154 0.4968 0.1793 -0.1768 0.113
000050 f8 b0 3e 35 ab a9 7c 33 97 38 55 a0 8c 2e 66 35
       -0.1553 0.3276 -0.04428 0.2339 0.5737 -0.00846 0.1023 0.3374
000060 f1 30 62 b3 3c 38 08 37 e3 29 59 30 a0 b7 1b a8
       0.1544 -0.2307 0.5293 0.4395 0.046 0.1359 -0.4766 -0.03207
000070 0e a4 3a a7 af b1 d4 af 6b a6 c9 b4 dd a7 d8 ad
       -0.01584 -0.02823 -0.1776 -0.1223 -0.02507 -0.299 -0.03072 -0.0913
000080 63 a4 42 32 d7 a2 6d 30 e3 aa 84 b4 f4 b6 95 a8
       -0.01714 0.1956 -0.01336 0.1383 -0.0538 -0.2822 -0.4346 -0.0358
000090 65 b5 9c aa 7e 37 ad a9 bd a8 a2 35 18 b1 90 a7
       -0.3372 -0.05164 0.4683 -0.04434 -0.03702 0.352 -0.1592 -0.02954
0000a0 42 35 16 ab c1 b2 57 34
       0.3286 -0.05536 -0.211 0.2712

dense/bias f2 [120]
000000 fa 34 70 a9 7a b1 74 b4 90 9e 87 26 7c 9d 9c b7
       0.311 -0.04248 -0.1711 -0.2783 -0.00641 0.0255 -0.005356 -0.4756
000010 a6 b6 aa b2 18 3a 69 b8 54 32 2f a4 5d 2d 00 00
       -0.4155 -0.2083 0.7617 -0.5513 0.1978 -0.01634 0.0838 0.0
000020 ba a3 ce b2 c4 b0 0b 34 8b 3a 60 39 1a 9f f8 a4
       -0.01509 -0.2126 -0.1489 0.2527 0.818 0.672 -0.006935 -0.01941
000030 e4 29 d8 30 83 30 c8 ad d1 aa b9 a5 3d 2e 1a b8
       0.04602 0.1514 0.141 -0.09033 -0.05325 -0.02235 0.0975 -0.5127
000040 28 31 df a8 36 28 c3 35 ae b2 b0 b0 b4 3a bf 31
       0.1611 -0.03806 0.0329 0.36 -0.2087 -0.1465 0.838 0.1796
000050 f6 ac 35 ab c9 a4 0f a8 3a 35 2a 36 9d a5 7f 28
       -0.0775 -0.0563 -0.01869 -0.0317 0.3267 0.3853 -0.02193 0.03513
000060 53 35 b5 b8 31 b7 05 b0 6e 36 8b af 30 b8 d4 21
       0.3328 -0.5884 -0.4495 -0.1256 0.4019 -0.11786 -0.5234 0.01138
000070 d7 b5 da 34 de 9e ff 33 07 39 ea 35 18 b4 0b 3b
       -0.365 0.3032 -0.006706 0.2499 0.6284 0.3696 -0.2559 0.8804
000080 68 34 c8 b4 c0 a8 ba 93 dd b7 bf 39 12 36 be b9
       0.2754 -0.2988 -0.0371 -0.000943 -0.4915 0.7183 0.3794 -0.718
000090 f6 a9 83 ae 28 36 d8 21 4e 32 ac b2 00 00 21 2c
       -0.04657 -0.10175 0.3848 0.01141 0.197 -0.2085 0.0 0.0645
0000a0 e6 32 23 b4 b5 31 2e 2d 25 24 aa b3 11 25 00 00
       0.2156 -0.2585 0.1783 0.08093 0.01619 -0.2395 0.01979 0.0
0000b0 fc 9e 48 b3 cb 2c 4f b5 e9 a8 45 0f 82 a3 c2 35
       -0.00682 -0.2275 0.0749 -0.3318 -0.03836 0.0004437 -0.01466 0.3599
0000c0 5d 34 c4 af 45 34 12 b7 bb a9 c9 a4 92 b0 7f b3
       0.2727 -0.12134 0.2668 -0.442 -0.04477 -0.01869 -0.1428 -0.2343
0000d0 59 b8 4c 2e 35 2e 9c b7 37 a8 cb b7 41 b6 be 34
       -0.5435 0.0984 0.097 -0.4756 -0.03293 -0.487 -0.3909 0.2964
0000e0 86 33 ab 36 51 36 15 b4 8a 28 ce ab bd 30 b0 b0
       0.2351 0.4167 0.3948 -0.2551 0.03546 -0.06097 0.1481 -0.1465

conv2d_1/bias f2 [16]
000000 57 a4 9e b4 f9 2e d4 a8 e3 34 35 39 cb 2e be 9f
       -0.01695 -0.2886 0.10895 -0.03772 0.3054 0.651 0.10614 -0.00756
000010 33 b3 54 37 fd 38 f4 34 57 b8 55 b4 3f a9 1a 35
       -0.225 0.458 0.6235 0.3096 -0.5425 -0.2708 -0.041 0.3188

conv2d/bias f2 [6]
000000 42 b4 09 b0 e8 b0 ae 35 87 a5 47 b6
       -0.266 -0.1261 -0.1533 0.355 -0.02159 -0.3923

sequential/dense/MatMul f2 [120, 64]
000000 76 28 24 b3 18 b6 18 ac e3 b2 c0 b0 45 b4 07 24
       0.03485 -0.2231 -0.3809 -0.06396 -0.2152 -0.1484 -0.2668 0.01573
000010 94 b5 ab ac 42 2d 77 b0 dd 29 27 2b 4f b0 47 b5
       -0.3486 -0.07294 0.08215 -0.1395 0.0458 0.05588 -0.1346 -0.3298
000020 da ae 72 26 5f 34 f0 a4 7c aa c7 aa 52 30 fd 90
       -0.10706 0.02518 0.2732 -0.01929 -0.05066 -0.05295 0.135 -0.000609
000030 39 a3 de b2 0a b8 52 32 08 a4 02 ae 56 31 9c 2f
       -0.01411 -0.2146 -0.505 0.1975 -0.01575 -0.0939 0.1667 0.1189
000040 a2 a6 64 b2 f0 2f 30 2e 9f 20 98 aa 67 ab 92 2f
       -0.02591 -0.1997 0.124 0.0967 0.009026 -0.0515 -0.05783 0.1183
000050 c3 a4 19 2e 92 32 4c b0 fc 25 32 30 eb ab 50 b4
       -0.0186 0.0953 0.2053 -0.1343 0.02338 0.1311 -0.06186 -0.2695
000060 20 29 4f 35 b6 2f 7b a7 5a 33 33 2a ff 28 ad b0
       0.04004 0.3318 0.1205 -0.02922 0.2297 0.04843 0.03903 -0.1461
000070 60 29 10 b3 f0 2d c8 34 ea 31 e4 30 99 29 9f b4
       0.042 -0.2207 0.0928 0.2988 0.1848 0.1528 0.04373 -0.2888
000080 47 ab be 32 18 2a df 30 f8 b2 9e 34 8d 2c 26 18
       -0.05685 0.2107 0.0476 0.1522 -0.2178 0.2886 0.0711 0.002026
000090 f3 ae 68 32 a2 b5 67 2c a4 2f f5 2b 19 32 fc 36
       -0.1086 0.2002 -0.352 0.0688 0.1194 0.06216 0.1906 0.4365
0000a0 dd 2a d0 b1 85 ba 79 a9 08 b4 95 35 83 a2 2c 2e
       0.05362 -0.1816 -0.815 -0.04276 -0.252 0.3489 -0.01272 0.09644
0000b0 67 32 30 38 48 34 16 b5 ea ac 32 2b 77 aa 5e 32
       0.2001 0.5234 0.2676 -0.3179 -0.0768 0.0562 -0.0505 0.199
0000c0 9d 2e b6 32 65 33 a1 23 93 9d 33 34 cb ae 62 26
       0.10333 0.2097 0.2311 0.0149 -0.005444 0.2625 -0.10614 0.02493
0000d0 1e b0 04 30 7d b3 61 b5 86 a7 30 2a 6c 2d b8 33
       -0.1287 0.1255 -0.234 -0.3362 -0.02939 0.04834 0.0847 0.2412
0000e0 4c 2d 68 b5 56 b3 2e ad f4 b4 bc 2b 6b a7 37 31
       0.08276 -0.338 -0.2292 -0.08093 -0.3096 0.06042 -0.02898 0.163
0000f0 27 aa fe 33 4a 37 49 b4 61 b4 35 b6 7f b1 66 35
       -0.04807 0.2498 0.4556 -0.2678 -0.2737 -0.388 -0.1718 0.3374
000100 e6 a5 6c aa 9f b0 2e 2e f1 b4 19 b0 3b 31 71 ad
       -0.02304 -0.05017 -0.1444 0.09656 -0.3088 -0.128 0.1635 -0.085
000110 c4 a3 40 30 a6 ae f5 2b 35 30 78 33 8b ac 77 2d
       -0.01517 0.1328 -0.1039 0.06216 0.1315 0.2334 -0.071 0.0854
000120 3a 2d 25 a3 12 b3 0f 34 e4 ae 4f b3 4e 34 c8 a9
       0.08167 -0.013954 -0.221 0.2537 -0.10767 -0.2284 0.269 -0.04517
000130 3e 36 62 a6 0b ae 68 af 95 2c a5 a5 70 32 53 36
       0.3901 -0.02493 -0.0944 -0.1157 0.0716 -0.02205 0.2012 0.3953
000140 ce b0 7a 94 06 b4 96 ad 88 ad 94 b1 52 ac e9 ae
       -0.1501 -0.001093 -0.2515 -0.0873 -0.0864 -0.1743 -0.0675 -0.108
000150 3a b4 e8 ac 04 32 df b3 9a a8 9b 2c b0 34 3c 34
       -0.2642 -0.07666 0.188 -0.246 -0.03595 0.07196 0.293 0.2646
000160 9e 17 4f b1 a4 ab f3 b2 67 ac 02 29 72 ad 6d a2
       0.00186 -0.1659 -0.0597 -0.2172 -0.0688 0.03912 -0.0851 -0.01255
000170 53 b1 09 ad f9 ae 54 a4 2d 2d 04 19 30 a7 9a 35
       -0.1664 -0.0787 -0.10895 -0.0169 0.0809 0.002449 -0.02808 0.35
000180 1b a5 e8 34 86 34 c0 b0 a3 a9 e6 b9 95 b1 47 9b
       -0.01994 0.3066 0.2827 -0.1484 -0.04404 -0.7373 -0.1744 -0.003553
000190 9e 2f 55 b5 27 af 02 26 29 b0 40 35 55 37 ee 33
       0.119 -0.3333 -0.11176 0.02347 -0.13 0.3281 0.4583 0.2478
0001a0 a6 a8 05 2a aa ad 91 ab 20 31 85 27 bb 22 63 28
       -0.03632 0.04703 -0.0885 -0.0591 0.1602 0.02937 0.013145 0.03427
0001b0 30 21 c6 ad 84 2e 27 b3 f3 24 0d ab b3 33 ff 31
       0.01013 -0.0902 0.1018 -0.2235 0.01933 -0.05508 0.2406 0.1874
0001c0 79 31 5e ad 97 ad 97 a4 1f b4 e8 ac 04 b1 31 2d
       0.171 -0.08386 -0.08734 -0.01793 -0.2576 -0.07666 -0.1567 0.0811
0001d0 5d b4 6d b1 24 b3 41 2c fb ae 10 33 3a 9f 15 b0
       -0.2727 -0.1696 -0.2231 0.06647 -0.1091 0.2207 -0.007057 -0.1276
0001e0 cc ad 93 29 0b 30 14 34 af a3 55 ac 33 b4 e4 29
       -0.0906 0.04355 0.1263 0.255 -0.01501 -0.0677 -0.2625 0.04602
0001f0 df 32 1e 32 d9 ab af ae ea 2e 5a 26 07 aa f0 b6
       0.2147 0.1912 -0.0613 -0.10443 0.10803 0.02481 -0.0471 -0.4336

sequential/dense_1/MatMul f2 [84, 120]
000000 ae 34 75 aa 91 34 54 b2 51 2e b9 2f 62 aa 4a 24
       0.2925 -0.05045 0.2854 -0.1978 0.0987 0.12067 -0.04987 0.01675
000010 8a 35 6b 34 c6 ad 43 b3 8e 33 5f 2f 91 ab 9a 28
       0.3462 0.2761 -0.0902 -0.2269 0.2361 0.1152 -0.0591 0.03595
000020 3f 2e 36 30 b1 2f 05 27 e3 b6 36 31 27 b0 30 33
       0.0976 0.1316 0.1202 0.02742 -0.4304 0.1628 -0.1298 0.2246
000030 b2 b3 9a a3 4d ad 9e b8 b0 ad 84 a6 d1 b6 24 ae
       -0.2405 -0.01485 -0.0828 -0.577 -0.08887 -0.02545 -0.426 -0.09595
000040 a8 a7 bd 9a 34 a5 a2 26 a9 af 4e 33 bc a7 69 2d
       -0.0299 -0.00329 -0.02032 0.02591 -0.1197 0.2283 -0.03021 0.08453
000050 2b 30 5d 31 37 af 70 2a 09 a4 14 ae 23 ac 27 ae
       0.1302 0.1676 -0.11273 0.0503 -0.01576 -0.095 -0.06464 -0.0961
000060 34 b0 6f 2a 46 ae d6 b5 77 2b f0 a7 36 30 07 2f
       -0.1313 0.05026 -0.098 -0.3647 0.05832 -0.031 0.1316 0.1098
000070 fd ae 34 a4 d2 2d ee ac 05 b4 43 a8 50 34 1a 30
       -0.1092 -0.01642 0.09094 -0.077 -0.2512 -0.0333 0.2695 0.1282
000080 5f ad 68 31 5d b5 77 2f 73 26 54 30 42 b5 48 32
       -0.0839 0.169 -0.3352 0.11664 0.02519 0.1353 -0.3286 0.1963
000090 08 31 1c 2a 23 b1 59 22 dd 2d 1a 2a 52 b1 a6 b4
       0.1572 0.04773 -0.1605 0.0124 0.0916 0.04767 -0.1663 -0.2905
0000a0 30 2e e2 38 51 b0 0e 25 a2 2f 79 2c 79 b1 43 b0
       0.0967 0.6104 -0.1349 0.01974 0.11926 0.0699 -0.171 -0.1332
0000b0 74 b4 dc b1 df 28 62 b6 70 32 e0 a8 3d aa c1 35
       -0.2783 -0.1831 0.03806 -0.399 0.2012 -0.0381 -0.04874 0.3596
0000c0 b2 2e 97 34 e4 b2 56 b0 b5 a6 03 28 c0 a5 88 32
       0.1046 0.2869 -0.2153 -0.1355 -0.0262 0.03134 -0.02246 0.2041
0000d0 6d 33 5b 33 8b 35 3a 34 61 29 a4 23 98 25 02 31
       0.232 0.2299 0.3464 0.2642 0.04202 0.01492 0.02185 0.1565
0000e0 30 2a fb 2c f6 a9 c3 34 b2 33 7a ad d8 b4 da 32
       0.04834 0.0778 -0.04657 0.2976 0.2405 -0.0856 -0.3027 0.2141
0000f0 9c 2f 03 b6 97 33 be 31 98 26 f2 29 a6 ae a1 ae
       0.1189 -0.3757 0.2372 0.1794 0.02576 0.04645 -0.1039 -0.1036
000100 6c 1a 1e 26 54 ac 70 2c dc b4 ad b0 0d ac 8a ac
       0.003136 0.0239 -0.0676 0.06934 -0.3037 -0.1461 -0.0633 -0.0709
000110 d1 ad c8 32 8c 15 27 b2 46 38 a8 33 a1 b1 c7 2d
       -0.0909 0.2119 0.001354 -0.1923 0.534 0.2393 -0.1759 0.0903
000120 cc b6 a4 34 5a ae 85 37 e6 ad 3b 2e a6 b5 a4 b3
       -0.4248 0.29 -0.09924 0.47 -0.09216 0.09735 -0.353 -0.2388
000130 4d 2e fe a7 82 35 24 27 6c 30 ae 2a 8c b7 ca 31
       0.09845 -0.03122 0.3442 0.0279 0.1382 0.0522 -0.4717 0.1809
000140 2b b5 d5 b0 d8 90 0f ae a9 2a 2a 2c e5 a8 d3 34
       -0.323 -0.151 -0.0005913 -0.09467 0.05203 0.06506 -0.03824 0.3015
000150 81 31 d5 b0 23 ac 23 37 da ae 6a 2c 40 30 44 b4
       0.172 -0.151 -0.06464 0.446 -0.10706 0.069 0.1328 -0.2666
000160 ea a4 6b b0 bd a6 0b b6 05 af 6f 2c d4 27 ab ae
       -0.0192 -0.1381 -0.02632 -0.3777 -0.1097 0.0693 0.03058 -0.1042
000170 4f ae 28 2e bf a0 e1 30 e0 29 d0 2e 78 2e 23 2c
       -0.0986 0.0962 -0.00927 0.1525 0.0459 0.10645 0.1011 0.06464
000180 25 2e 25 b4 77 29 2b 2b 2d b0 93 2d 54 af 1f 35
       0.096 -0.259 0.0427 0.056 -0.1305 0.0871 -0.1145 0.32
000190 85 2d 7a 39 60 34 e9 2c 20 34 29 2a b4 b5 11 aa
       0.08624 0.6846 0.2734 0.0767 0.2578 0.04813 -0.3564 -0.0474
0001a0 cf b0 bb 38 f5 31 f6 af 7e b0 fb b1 57 b6 d3 33
       -0.1503 0.5913 0.1862 -0.1244 -0.1404 -0.1869 -0.3962 0.2445
0001b0 07 34 2f b0 00 38 6c 23 c8 aa ba ac ab 2b a4 32
       0.2517 -0.1307 0.5 0.014496 -0.05298 -0.07385 0.0599 0.2075
0001c0 9b a9 45 33 4f ac 4b af 72 af ea 29 9f 29 a8 1d
       -0.0438 0.2272 -0.0673 -0.11395 -0.11633 0.0462 0.0439 0.005524
0001d0 15 2f fe ac c6 33 fc 2e 7f 99 21 b8 5e b4 45 35
       0.11066 -0.078 0.2429 0.10913 -0.002684 -0.516 -0.273 0.3293
0001e0 8c 9c d6 28 db 28 f3 2b bb a8 2b b0 82 24 c0 30
       -0.00444 0.03778 0.03793 0.0621 -0.03696 -0.1302 0.01761 0.1484
0001f0 b8 2d 58 2c d6 af 73 aa f9 ac 81 1f 28 b0 14 b0
       0.08936 0.0679 -0.12244 -0.05038 -0.0777 0.007328 -0.1299 -0.1274

sequential/dense_2/MatMul f2 [131, 84]
000000 ac b5 3a b2 45 2c 86 bb 07 a5 ec a5 93 29 79 30
       -0.3545 -0.1946 0.0667 -0.9404 -0.01964 -0.02313 0.04355 0.1398
000010 63 ac ae a9 6c ad bf a1 6c 99 13 34 1b 34 2f 2a
       -0.06854 -0.04437 -0.0847 -0.01122 -0.002647 0.2546 0.2566 0.0483
000020 ae 32 e3 30 c0 30 ad b4 4a b2 22 31 23 20 70 ad
       0.2087 0.1527 0.1484 -0.2922 -0.1965 0.1604 0.00808 -0.08496
000030 59 b8 82 27 7c ad 4f b2 05 ad 81 ac 54 a9 1f 26
       -0.5435 0.02933 -0.0857 -0.1971 -0.0784 -0.0704 -0.04163 0.02391
000040 31 b2 62 b2 0d b1 2f 2d d5 ad 21 b2 35 2d de b5
       -0.1935 -0.1995 -0.1578 0.081 -0.0911 -0.1915 0.08136 -0.3667
000050 cb 2f c0 b4 47 b6 10 af fd 32 c7 a6 a9 27 4b 28
       0.12177 -0.2969 -0.3923 -0.11035 0.2184 -0.02647 0.02992 0.03354
000060 04 bc 50 b7 06 2f 02 b8 73 ad 12 b3 f6 b4 17 2e
       -1.004 -0.457 0.10974 -0.501 -0.08514 -0.221 -0.31 0.09515
000070 04 2f d0 2f 77 2d a6 b1 1c b0 8a b8 a8 27 d0 b4
       0.1096 0.1221 0.0854 -0.1765 -0.1284 -0.5674 0.0299 -0.3008
000080 bd a9 8f b7 e8 a7 d5 29 93 26 70 b5 f7 b1 f6 ac
       -0.04483 -0.4724 -0.03088 0.04556 0.02568 -0.3398 -0.1864 -0.0775
000090 60 27 f4 27 e1 ae 83 90 0b 24 2b ba 01 2b e2 2c
       0.02881 0.03107 -0.1075 -0.0005507 0.0158 -0.771 0.05472 0.0763
0000a0 dc 2b 49 b1 58 b4 16 ac 05 30 4b a9 1a 2f 23 b3
       0.0614 -0.1652 -0.2715 -0.06384 0.1256 -0.04135 0.11096 -0.223
0000b0 1f 2f 68 b2 bc 31 8a b4 2c 15 59 2e 87 b4 a5 b0
       0.11127 -0.2002 0.1792 -0.2837 0.001263 0.0992 -0.283 -0.1451
0000c0 cf 37 f4 ac 6d 10 9d ba 1a b2 4c af 52 ac 9c bc
       0.488 -0.0774 0.0005403 -0.8267 -0.1907 -0.114 -0.0675 -1.152
0000d0 e6 ae 21 2a e4 b6 da 2e 8f ac 6d af 15 ae 7d aa
       -0.1078 0.04788 -0.4307 0.10706 -0.0712 -0.116 -0.09503 -0.0507
0000e0 5d 2b d6 2d be 31 e7 2c 6c ac 34 2c 44 b1 92 b0
       0.05753 0.0912 0.1794 0.0766 -0.0691 0.0657 -0.1646 -0.1428
0000f0 60 31 99 2c b2 b9 f0 2f 12 b4 57 30 66 a7 65 b4
       0.168 0.07184 -0.712 0.124 -0.2544 0.1356 -0.0289 -0.2747
000100 c5 9a e6 9f 8b a9 ca ab 28 b8 29 b3 03 b5 17 ae
       -0.003305 -0.007713 -0.0433 -0.06085 -0.5195 -0.2238 -0.3132 -0.09515
000110 f1 b1 f8 28 96 b6 af 30 34 31 0e b0 cb b5 4d 2e
       -0.1857 0.03882 -0.4116 0.1464 0.1626 -0.1267 -0.362 0.09845
000120 1f b0 03 b9 a9 31 5e b6 0f a7 fe a9 fc ac cf 32
       -0.1288 -0.6265 0.1769 -0.398 -0.02757 -0.0468 -0.0779 0.2128
000130 8c 2f 27 34 77 30 5e af d2 31 95 ae 57 32 ab 2b
       0.1179 0.2595 0.1395 -0.1151 0.1819 -0.10284 0.1981 0.0599
000140 a1 af 67 31 0f ae db b0 d6 0d 86 a1 58 b5 73 2c
       -0.1192 0.1688 -0.09467 -0.1517 0.0003562 -0.01079 -0.334 0.0695
000150 14 b2 58 b3 95 ae 03 bd a4 b0 a2 2f d7 b5 92 8f
       -0.19 -0.2295 -0.10284 -1.253 -0.145 0.11926 -0.365 -0.000462
000160 6b aa 58 ac 01 b5 33 1c 43 2f f6 af 7e b5 5c 2c
       -0.05014 -0.0679 -0.3127 0.0041 0.11346 -0.1244 -0.3433 0.0681
000170 b8 28 0e a8 8b 1c da 2e 73 a8 15 aa 33 31 4d 2c
       0.03687 -0.03168 0.004436 0.10706 -0.03476 -0.04752 0.1625 0.0672
000180 ae 23 12 32 c1 2b fd 28 02 2a 28 b0 d4 b4 ab 2f
       0.015 0.1897 0.06058 0.03897 0.04694 -0.1299 -0.3018 0.1198
000190 1f ba 84 b4 20 2e 6a 29 39 2e 03 bb bf a1 ff b3
       -0.765 -0.2822 0.0957 0.0423 0.0972 -0.8765 -0.01122 -0.2499
0001a0 d0 2d 1f b1 a4 ad 00 32 3f af db 2f c7 b9 4c b5
       0.0908 -0.16 -0.08813 0.1875 -0.1132 0.12274 -0.722 -0.331
0001b0 86 2e de ab fb ab 14 b5 e5 ad ed 34 d5 31 5c 30
       0.1019 -0.06146 -0.06235 -0.3174 -0.0921 0.3079 0.1823 0.1362
0001c0 fc ae d4 30 2b b4 bf ba 80 ad 20 2c 0e 2e 85 b6
       -0.10913 0.1509 -0.2605 -0.8433 -0.08594 0.06445 0.0946 -0.4075
0001d0 fd ad ce b0 4d 27 b7 a8 20 2b b8 ae 0f b4 04 b0
       -0.09357 -0.1501 0.02852 -0.03683 0.05566 -0.105 -0.2537 -0.1255
0001e0 a5 ae 4c 2c c7 2d 6a 19 0a ae 16 b9 f8 30 33 a7
       -0.1038 0.06714 0.0903 0.002644 -0.09436 -0.6357 0.1553 -0.02812
0001f0 88 b5 83 ae 4d 2a 5b bb 9b b5 39 b0 13 ae 18 ba
       -0.3457 -0.10175 0.04922 -0.9194 -0.3503 -0.132 -0.0949 -0.7617

sequential/conv2d/Conv2D f2 [6, 5, 5, 3]
000000 ed ad f7 31 ce b0 bf 31 77 2d 8b b2 89 a6 a8 2f
       -0.0926 0.1864 -0.1501 0.1796 0.0854 -0.2045 -0.02553 0.1196
000010 6a 26 25 ae 88 34 36 b2 4c b0 be 34 68 b3 11 2e
       0.02505 -0.096 0.2832 -0.1941 -0.1343 0.2964 -0.2314 0.0948
000020 bc 33 d2 b2 a2 31 66 31 80 1d 2c ac 5d 2d f2 af
       0.2417 -0.2131 0.176 0.1687 0.00537 -0.0652 0.0838 -0.12415
000030 59 2c 3a 30 3f b4 d7 84 24 30 ac b2 c1 2c 09 31
       0.06793 0.1321 -0.2654 -7.385e-05 0.1294 -0.2085 0.0743 0.1573
000040 6a b0 6e 32 83 34 a6 b2 12 30 be 30 1c b1 39 32
       -0.138 0.2009 0.282 -0.2078 0.1272 0.1482 -0.1597 0.1945
000050 83 31 5a ac ed 2e ef 34 e1 19 b2 ae 33 a7 3b a8
       0.1722 -0.068 0.1082 0.3083 0.00287 -0.1046 -0.02812 -0.03305
000060 a3 2c 9f 23 14 b0 53 31 8c 34 56 b4 32 21 3c 32
       0.07245 0.014885 -0.1274 0.1664 0.2842 -0.271 0.01015 0.1948
000070 1d b0 95 31 f2 34 31 2b 8c a8 68 a7 ef b4 9a 30
       -0.1285 0.1744 0.309 0.05618 -0.03552 -0.02893 -0.3083 0.1438
000080 70 32 60 b2 3b a2 6c 32 a4 ab 0d 32 da 28 45 b4
       0.2012 -0.1992 -0.01217 0.2007 -0.0597 0.1891 0.0379 -0.2668
000090 87 32 fe 2d 35 ad bc ab ae 30 1e 9a 0c aa f7 2e
       0.204 0.0936 -0.08136 -0.06042 0.1462 -0.002987 -0.04724 0.1088
0000a0 68 2a d4 2e b4 30 00 31 c2 b0 63 ad 78 18 30 b0
       0.05005 0.1067 0.147 0.1562 -0.1487 -0.08417 0.002182 -0.1309
0000b0 b7 aa 33 28 0f 2d 23 2c 52 32 7d 2e ef 2f 19 35
       -0.05246 0.0328 0.07904 0.06464 0.1975 0.1014 0.12396 0.3186
0000c0 e7 a8 4c ad 1d 35 14 2c d4 27 e6 34 8b b0 87 30
       -0.0383 -0.08276 0.3196 0.0637 0.03058 0.3062 -0.142 0.1415
0000d0 30 32 5a b0 1d 24 18 35 04 a1 a2 18 cc 35 06 ad
       0.1934 -0.136 0.01607 0.3184 -0.009796 0.002262 0.3623 -0.0785
0000e0 7e ac 78 35 2b 2f 29 31 08 36 ec 2a 6c 29 ff 30
       -0.0702 0.3418 0.112 0.1613 0.377 0.05408 0.04236 0.1561
0000f0 c8 a2 3f 34 3c 31 b3 21 5e 31 00 33 02 ab 23 31
       -0.013245 0.2654 0.1636 0.01113 0.1677 0.2188 -0.05475 0.1605
000100 0f 32 1f af 53 ae 95 30 f9 b0 36 ab 24 2b 6f 2b
       0.1893 -0.11127 -0.0988 0.1432 -0.1554 -0.05634 0.0558 0.05807
000110 78 2c c3 30 6e a0 51 2d 2b 32 a3 b0 d5 2b cf 33
       0.0698 0.1488 -0.00865 0.08307 0.1927 -0.1449 0.0612 0.244
000120 5c a4 3b 32 f1 33 e4 b2 11 2e 02 24 b1 30 0f b1
       -0.01703 0.1947 0.2482 -0.2153 0.0948 0.01566 0.1466 -0.1581
000130 04 b2 2f 33 d7 b1 4b ad 55 94 e8 1c f1 22 90 34
       -0.188 0.2245 -0.1825 -0.0827 -0.001058 0.00479 0.01356 0.2852
000140 38 a0 61 ac fc 32 5b a9 63 30 6e 2d 19 b3 7e af
       -0.00824 -0.0684 0.2183 -0.04184 0.1371 0.08484 -0.2218 -0.11707
000150 0f 35 35 b3 63 ae 41 2e 10 b2 4b b0 9e 30 d4 b2
       0.3162 -0.2252 -0.0998 0.0977 -0.1895 -0.1342 0.1443 -0.2134
000160 af a9 b3 34 44 ad ba a5 99 21 fb b3 2e 26 6c 34
       -0.0444 0.2937 -0.0823 -0.02237 0.01093 -0.2494 0.02414 0.2764
000170 2d b3 79 ad fc 34 5a b3 58 96 cf 34 00 b5 93 2f
       -0.2242 -0.0855 0.3115 -0.2297 -0.001549 0.3005 -0.3125 0.11835
000180 ea 34 c0 18 4c 30 fb 32 10 ae a7 a7 b9 2f 7c b4
       0.3071 0.00232 0.1343 0.2181 -0.0947 -0.02989 0.12067 -0.2803
000190 ab 2b 91 1c 29 b2 6b b1 31 2e 02 ad ba 30 80 32
       0.0599 0.00446 -0.1925 -0.1693 0.09674 -0.07825 0.1477 0.2031
0001a0 91 b1 75 22 3a 34 7b ad ba aa e8 33 ab ad ac 25
       -0.174 0.01261 0.2642 -0.08563 -0.05255 0.2471 -0.08856 0.02216
0001b0 1d 31 06 b1 72 a8 dd 31 47 b1 1b 30 94 31 0e ab
       0.1598 -0.157 -0.03473 0.1832 -0.1649 0.1283 0.1743 -0.0551
0001c0 93 21 7e ac d7 28 c3 b4 f9 18 cb 2f d4 b4 d8 b0
       0.01089 -0.0702 0.0378 -0.2976 0.002428 0.12177 -0.3018 -0.1514
0001d0 7e a9 dc b4 40 a8 3b 30 57 b0 32 b0 fe ad 4f b5
       -0.0429 -0.3037 -0.0332 0.1322 -0.1356 -0.1311 -0.0936 -0.3318
0001e0 8d 27 4a 31 85 b1 e3 95 9e 2f 9b b0 82 a6 10 32
       0.0295 0.1653 -0.1725 -0.001437 0.119 -0.1439 -0.02542 0.1895
0001f0 6b b4 97 b2 32 30 be b1 78 ac 88 ac 6c a5 af 30
       -0.2761 -0.2059 0.1311 -0.1794 -0.0698 -0.0708 -0.02118 0.1464

sequential/conv2d_1/Conv2D f2 [16, 5, 5, 6]
000000 f3 a3 6c 2c 30 b0 77 ad 24 ae b6 a2 21 ad 16 ac
       -0.015526 0.0691 -0.1309 -0.0854 -0.09595 -0.01311 -0.08014 -0.06384
000010 1f af 96 ab 8c af 3f 2c 98 a8 9c ab ad ae bd ae
       -0.11127 -0.05927 -0.1179 0.06635 -0.0359 -0.05945 -0.1043 -0.1053
000020 51 20 7d ad 07 ad 42 28 9c ac d0 a8 fb af 37 ac
       0.00843 -0.08575 -0.07855 0.03326 -0.072 -0.0376 -0.1247 -0.06586
000030 93 a8 d5 a9 33 19 04 a9 2b a0 bd 28 24 ac 39 ad
       -0.03574 -0.04556 0.002539 -0.03918 -0.00814 0.03702 -0.0647 -0.0816
000040 4c a7 71 af 1e 24 fd ac 43 23 a9 ad 1f a8 9d a9
       -0.0285 -0.1163 0.01608 -0.07794 0.01418 -0.08844 -0.0322 -0.04385
000050 08 ab 63 2b 4a 2d da a9 ee 2c 26 2c 70 ae 67 2a
       -0.05493 0.0577 0.08264 -0.04572 0.077 0.0648 -0.1006 0.05002
000060 72 ac 10 ae 5d 28 2c ab b1 af f0 2c 6b ad 9f ab
       -0.06946 -0.0947 0.0341 -0.05603 -0.1202 0.07715 -0.08466 -0.05954
000070 61 ad e2 2b 10 a7 77 aa f3 ac 0e 2a 76 2c ef 2a
       -0.08405 0.06158 -0.02759 -0.0505 -0.07733 0.0473 0.0697 0.05417
000080 59 af 6c aa 90 a7 09 ae d8 a4 b1 2c 99 b0 69 af
       -0.1148 -0.05017 -0.02954 -0.0943 -0.01892 0.0733 -0.1437 -0.1158
000090 00 21 83 18 94 aa 57 2c d0 a9 7f 8f bf 19 a0 ae
       0.009766 0.002203 -0.0514 0.0678 -0.0454 -0.0004575 0.002806 -0.1035
0000a0 75 a4 f5 ad d7 ad 2f ac ab 25 65 a9 e1 2c a6 2c
       -0.01741 -0.0931 -0.09125 -0.06537 0.02214 -0.04214 0.07623 0.07263
0000b0 6e 28 4f 2c 5b ae d3 ac 14 2c 36 2d 97 ad eb a1
       0.0346 0.0673 -0.0993 -0.0754 0.0637 0.0814 -0.08734 -0.01156
0000c0 0a 2d 1b ab b8 ac 8b 2c a7 a5 d7 ad 0a 2d 6a 29
       0.07874 -0.0555 -0.0737 0.071 -0.02208 -0.09125 0.07874 0.0423
0000d0 24 24 3d 2b d9 25 fb 1a d6 25 86 ad c5 ae 06 2c
       0.01617 0.05655 0.02284 0.003408 0.0228 -0.0863 -0.1058 0.06287
0000e0 ce ad 61 ae b7 24 1c ac 85 2c 3d ad 7c af 5b ad
       -0.0907 -0.0997 0.01842 -0.0642 0.0706 -0.08185 -0.11694 -0.0837
0000f0 b9 ad 91 a4 4c 29 73 9c 5d b0 1d ae 0a a5 cc a5
       -0.0894 -0.01784 0.04138 -0.004345 -0.1364 -0.0955 -0.01968 -0.02264
000100 3f ae da 2c d1 af 5f ad bf ab cd 2c b3 aa 3f a9
       -0.0976 0.0758 -0.12213 -0.0839 -0.06052 0.075 -0.05234 -0.041
000110 ef 29 92 28 76 a3 23 a7 46 18 35 29 c9 af 86 2c
       0.04636 0.0357 -0.01457 -0.02788 0.002087 0.04068 -0.12164 0.0707
000120 6f ab b1 a8 6c 2b df a4 e3 af c0 ad 24 2d 01 b2
       -0.05807 -0.03665 0.05798 -0.01903 -0.1232 -0.08984 0.0803 -0.1876
000130 48 30 ee 35 3a a8 80 31 db 2e 5b ad a3 32 49 31
       0.1338 0.3706 -0.03302 0.1719 0.1071 -0.0837 0.2074 0.1652
000140 11 ab c3 a7 d2 ad 0b b2 1a 31 45 30 b1 b3 73 ae
       -0.0552 -0.03032 -0.09094 -0.1888 0.1594 0.1334 -0.2404 -0.10077
000150 a1 ae 8d b1 ec 29 06 ab 9b ac ef a4 29 b4 8b 31
       -0.1036 -0.1735 0.04626 -0.05487 -0.07196 -0.01927 -0.26 0.1732
000160 70 ad 53 b4 80 30 69 ae f1 2b 1c 32 f8 31 d8 31
       -0.08496 -0.2703 0.1406 -0.10016 0.06204 0.1909 0.1865 0.1826
000170 73 30 2e 32 b5 26 c8 2e 76 28 ef 31 b2 2d d5 ae
       0.139 0.1931 0.0262 0.10596 0.03485 0.1854 0.089 -0.10675
000180 9e ac 75 ad ce 2e 0d 33 c2 b3 34 b0 5b ae e1 b2
       -0.07214 -0.08527 0.1063 0.2203 -0.2424 -0.1313 -0.0993 -0.215
000190 56 ab 9b 2c 61 ab d1 18 b4 b3 af 95 55 2a 9f ac
       -0.0573 0.07196 -0.05765 0.002352 -0.2407 -0.001388 0.04947 -0.0722
0001a0 14 31 c9 af d8 9a b3 35 96 2f 40 2b 8f 35 7b 34
       0.1587 -0.12164 -0.003342 0.3562 0.1185 0.05664 0.3474 0.28
0001b0 89 2a 0a 2c 2a 2e f9 a6 c6 33 86 9d 68 2b d1 26
       0.05106 0.0631 0.0963 -0.02724 0.2429 -0.005394 0.05786 0.02663
0001c0 ab a6 23 a4 31 24 a5 20 b1 ac 97 a5 7f 2b b6 ae
       -0.02605 -0.01616 0.01637 0.00907 -0.0733 -0.02184 0.05856 -0.10486
0001d0 77 2e c4 ae 2e ae 1b 2e d6 2a 67 b2 4d ac 22 af
       0.101 -0.1057 -0.09656 0.0954 0.0534 -0.2001 -0.0672 -0.11145
0001e0 0c 34 9d 35 42 34 9d b0 eb 32 c8 32 d1 1c eb 31
       0.253 0.3508 0.266 -0.1442 0.2162 0.2119 0.004704 0.1849
0001f0 4f 2b ac ab 31 34 57 30 36 b0 6a 2e f4 32 0b b0
       0.0571 -0.05994 0.262 0.1356 -0.1316 0.1002 0.2173 -0.1263
